scoring.pth (torch, 986899 bytes, 9 tensors)

rnn.weight_ih_l0 f4 [600, 7]
-0.010648023 0.012193466 -0.3496974 0.0798834 -0.21305266 -0.0401702 -0.52831113 -0.26959017
-0.10624845 0.068501964 0.3827907 0.012771981 0.07827273 0.31536877 0.27555114 0.19227561
-0.26492864 0.12213738 -0.35391098 -0.022864504 0.14150706 -0.2318818 -0.17762032 -0.21194206
-0.4673799 0.12864034 -0.036490973 0.009245758 0.029315595 0.25542122 0.1171149 -0.26034024
-0.0360385 -0.12981854 -0.53640085 0.3350727 0.3937711 -0.35393625 -0.09647502 -0.1452296
0.06399013 0.07089269 -0.1556543 0.29237926 -0.34533334 -0.21348521 0.071335316 -0.052088976
0.08892711 -0.0634565 -0.11182573 -0.38646623 -0.106410235 -0.043609194 -0.067456834 -0.3487159
-0.44700292 -0.69096035 -0.28894588 0.2831724 -0.061261117 0.16679887 0.33310398 -0.6265479
-0.23818895 -0.12091336 -0.29362512 0.20132713 -0.12661132 0.17164198 -0.92130226 -0.1554801
-0.23969847 -0.33068493 0.004279803 -0.03757364 -0.037666734 -0.35425973 -0.47634396 -0.33959237
-0.015256886 -0.16463472 -0.09156685 -0.1738554 -0.19084099 -0.008407916 -0.7399265 -0.034490325
-0.43392104 -0.028159786 -0.5465918 -0.45300114 -0.5109573 -0.42845687 -0.1941207 -0.020908019
-0.036686838 -0.23722261 -0.6038016 -0.4501454 0.04645467 -0.21014036 0.22261032 -0.14648812
-0.77611446 -0.39183462 -0.22307299 -0.19379193 -0.49905586 -0.08310197 -0.31069613 -1.067024
0.019789444 0.28888223 -0.15482095 -0.33235836 -0.23960602 -0.04432729 -0.4586303 -0.030157344
0.2469074 -0.11102697 -0.12802242 -0.055362046 -0.0060985065 0.09025937 -0.38216233 -0.20268679
-0.15723579 -0.064182825 -0.26128143 -0.044885505 0.15727739 0.27145702 0.050003134 -0.034582827
-0.1437397 0.23762052 0.1098298 -0.24396881 -0.6081154 -0.27748576 0.29815808 -0.42165565
0.763678 -0.053714 0.2601465 -0.8883128 -0.24010818 -0.21253335 -0.29684606 0.07394372
-0.09639134 0.30327997 0.13028622 0.35900038 -0.055083916 -0.014586791 -0.32684836 -0.05676937
-0.24596703 -0.3155169 0.24764031 -0.545626 -0.26230317 -0.6654399 0.010810918 -0.038305897
-0.9305222 -0.93547446 -0.45369852 -0.04816364 -0.22128938 -0.104203515 -0.48625314 -0.56825525
-0.30183443 -0.1848194 0.242908 -0.26653466 -0.090960614 -0.047337104 -0.19812223 -0.20584916
-0.26703367 -0.11009168 -0.08627714 -0.008241297 -0.029857045 -0.118293054 0.678701 -0.17627682
-0.016012538 -0.20098026 0.013006646 -0.18719845 -0.38010645 -0.10740269 -0.3542433 -0.13106373
-0.30419764 0.023133408 0.11653865 -0.6510651 -0.4000125 0.049384184 -0.46323693 0.1968111
-0.059216134 -0.21051304 0.12552355 0.12452862 0.6071715 -0.3538815 0.33265328 -0.20858967
-0.2466906 0.12944639 -0.14637427 -0.27380458 -0.3027702 -0.04020469 -0.06927548 -0.61795574
-0.018066991 0.67632276 0.36127207 -0.1295083 -0.09891817 -0.009313308 0.15076147 -0.6497863
0.057287775 0.05812189 -0.26976007 0.006818642 0.023832304 -0.029674053 -0.4577448 -0.16613369
-0.0387201 -0.62273324 -0.20291534 -0.66649985 -1.043106 -0.09663341 0.014423735 -0.008664557
-0.25105736 -0.032330316 0.0068734186 -0.10214822 -0.6599397 -0.15686467 -0.31170496 -0.20286587
00000000: 0c75 2ebc 1ac7 473c 8a0b b3be e899 a33d
00000010: 7a2a 5abe 8289 24bd 663f 07bf b907 8abe
00000020: ca98 d9bd c24a 8c3d 25fd c33e 9241 513c
00000030: 744d a03d 0478 a13e 0a15 8d3e e6e3 443e
00000040: baa4 87be 2a23 fa3d d233 b5be 574e bbbc
00000050: 3ae7 103e 6c72 6dbe 1ae2 35be 5707 59be
00000060: 6b4c efbe 4bba 033e 8f77 15bd 857b 173c
00000070: 4227 f03c 92c6 823e f0d9 ef3d 514b 85be
00000080: 1b9d 13bd 27ef 04be 9151 09bf a68e ab3e
00000090: 5e9c c93e 2237 b5be b294 c5bd 11b7 14be
000000a0: 420d 833d 3030 913d d763 1fbe bcb2 953e
000000b0: 88cf b0be de9b 5abe 4018 923d 405b 55bd
000000c0: 6b1f b63d 7bf5 81bd e304 e5bd e7de c5be
000000d0: 9ced d9bd 8e9f 32bd cf26 8abd e48a b2be
000000e0: 91dd e4be c7e2 30bf b7f0 93be f9fb 903e
000000f0: f0ec 7abd 53cd 2a3e 9b8c aa3e 7165 20bf
00000100: cee7 73be 6ca1 f7bd 0856 96be b328 4e3e
00000110: 66a6 01be eac2 2f3e 77da 6bbf 2d36 1fbe
00000120: 8473 75be 894f a9be 973d 8c3b d1e6 19bd
00000130: 6f48 1abd 8861 b5be 5be3 f3be 0ddf adbe
00000140: 05f8 79bc 0196 28be 6787 bbbd 2607 32be
00000150: d26b 43be 5bc1 09bc d36b 3dbf ba45 0dbd
00000160: e62a debe 5aaf e6bc 71ed 0bbf c4ef e7be
00000170: 19ce 02bf b35e dbbe 94c7 46be 4b47 abbc
00000180: f044 16bd 7cea 72be be92 1abf 7579 e6be
00000190: 4147 3e3d 092f 57be f6f3 633e fb00 16be
000001a0: 70af 46bf 8c9e c8be 3f6d 64be 6471 46be
000001b0: 4084 ffbe 5e31 aabd 9013 9fbe 3e94 88bf
000001c0: 791d a23c 5fe8 933e 6289 1ebe e02a aabe
000001d0: 485b 75be 8890 35bd 97d1 eabe 890c f7bc
000001e0: 4bd5 7c3e 1c62 e3bd 4f18 03be 50c3 62bd
000001f0: fbd5 c7bb e8d9 b83d c8aa c3be 208d 4fbe
00000200: 6b02 21be 4972 83bd aec6 85be ddd9 37bd
00000210: 530d 213e 6afc 8a3e 16d0 4c3d b9a6 0dbd
00000220: 8030 13be cb52 733e 72ee e03d f6d2 79be
00000230: 73ad 1bbf 9d12 8ebe 2da8 983e 40e3 d7be
00000240: 6780 433f 3603 5cbd ec31 853e 7868 63bf
00000250: ebde 75be 58a2 59be 35fc 97be ce6f 973d
00000260: d368 c5bd 8347 9b3e c069 053e e6ce b73e
00000270: ac9f 61bd 70fd 6ebc ab58 a7be 0087 68bd
00000280: c8de 7bbe 6e8b a1be 6c95 7d3e 25ae 0bbf
00000290: 9a4c 86be 455a 2abf 4720 313c a5e6 1cbd
000002a0: b436 6ebf 417b 6fbf 2c4b e8be 3d47 45bd
000002b0: af99 62be a768 d5bd 2cf6 f8be 2d79 11bf
000002c0: 0b8a 9abe 4c41 3dbe e0bc 783e 3b77 88be
000002d0: 8f49 babd 8de4 41bd 8ee0 4abe 1fca 52be
000002e0: a3b8 88be bf77 e1bd 12b2 b0bd 8106 07bc
000002f0: c396 f4bc a143 f2bd 59bf 2d3f e981 34be
00000300: ba2c 83bc c5cd 4dbe d419 553c f3b0 3fbe
00000310: 509d c2be f1f5 dbbd 615f b5be 9235 06be
00000320: cbbf 9bbe 4682 bd3c d1ab ee3d 34ac 26bf
00000330: 70ce ccbe 1247 4a3d 642d edbe d988 493e
00000340: 9e8c 72bd bb90 57be 3f89 003e dc08 ff3d
00000350: 976f 1b3f f52f b5be 8851 aa3e 8898 55be
00000360: 769c 7cbe 988d 043e 23e3 15be 1d30 8cbe
00000370: b204 9bbe acad 24bd 4ee0 8dbd 5932 1ebf
00000380: 3a01 94bc 7d23 2d3f a7f8 b83e d39d 04be
00000390: 9c95 cabd d896 18bc 3761 1a3e 6558 26bf
000003a0: 96a6 6a3d 3811 6e3d fe1d 8abe ea6e df3b
000003b0: f73b c33c 0017 f3bc 875d eabe f31e 2abe
000003c0: f898 1ebd 726b 1fbf 0ac9 4fbe bc9f 2abf
000003d0: 7f84 85bf bde7 c5bd 8851 6c3c c9f5 0dbc
000003e0: 978a 80be cb6c 04bd 6a3a e13b 1633 d1bd
000003f0: cff1 28bf 22a1 20be cb97 9fbe 12bc 4fbe

rnn.weight_hh_l0 f4 [600, 200]
-0.35758653 -0.072436064 0.027322622 0.097970545 -0.13460176 -0.037669465 -0.010739527 -0.083110355
0.024571108 -0.012968094 0.065500975 -0.11280562 -0.00077645626 0.14167075 -0.13159452 -0.045188308
-0.10804211 -0.0017710986 0.025288567 -0.09123381 -0.08958148 -0.03563023 -0.007888182 0.0018044058
0.107216164 -0.09883948 0.048837 -0.020636259 0.08098171 0.08998011 0.15186457 0.08445863
0.05507376 -0.048846774 -0.08370569 -0.03651819 -0.2595073 0.029785713 0.059782196 0.05935986
-0.011010018 -0.15056457 0.17872071 -0.00904979 0.035277717 -0.14136559 0.080372445 0.21192764
0.022909593 -0.17238718 -0.18557565 0.020932289 -0.008622514 0.12171939 0.025842024 -0.049643803
0.09356561 0.031608887 -0.0142234545 0.025442192 0.04948965 0.11359764 -0.22660092 -0.03666103
0.03965972 -0.14924565 -0.07014883 0.07439036 0.02084788 0.014385287 -0.007418976 0.2874176
-0.038023822 0.04662411 0.023496473 0.09877359 -0.02557805 0.016777283 -0.0392179 -0.009076318
0.043894805 0.027834468 -0.114575855 -0.01425026 0.013293974 0.10664424 0.01697963 0.093787864
-0.04822869 0.04838541 -0.18896666 0.07080592 -0.015393801 -0.000176756 0.026850702 0.0026802218
-0.036385626 0.31708857 0.02075515 0.006007668 -0.051886078 -0.043235503 -0.05894801 0.05647916
0.012768957 -0.20064786 -0.031325877 0.028781867 0.023062237 -0.12368318 0.12590542 0.03713766
-0.052455094 -0.04111677 -0.0037238614 -0.0917971 -0.006839295 0.17972857 0.02800213 -0.08720415
0.059469916 0.13222328 -0.026218731 -0.18269455 -0.020375023 0.018425351 0.25244436 0.11907882
0.007819266 0.09782958 0.12179586 -0.13610667 0.1021533 -0.080786385 -0.10400592 -0.10624984
0.046878364 -0.19960019 -0.06199769 -0.046449482 -0.07191117 0.025870392 -0.027201205 0.06275731
0.03550562 0.020545213 -0.056408256 0.054297607 0.013940323 -0.17495567 0.23273067 0.066042796
0.124231495 0.12187006 0.19982967 0.051382195 0.06244152 0.043681554 0.04776637 0.17775427
-0.039756328 0.13289209 -0.20469196 0.045114573 0.17099138 -0.020014254 -0.012490223 -0.04367856
-0.1239777 -0.114824384 0.11795362 -0.02638454 0.16963275 -0.032598704 -0.1108018 0.011523444
0.07543058 0.062994935 0.08153216 0.031509254 0.12036556 -0.08474362 -0.082683034 0.012207558
0.058490563 0.15105763 -0.1963478 0.12075347 0.04639276 -0.10007686 0.20639582 -0.1008422
0.07400977 0.15879522 -0.105636954 0.13548996 0.053430907 0.0024467658 0.09940158 0.022860346
0.0017019867 0.6548493 0.09723549 -0.0032068065 -0.45121482 -0.50412244 0.3773915 0.25118503
-0.07811594 -0.09292232 0.04795468 0.087027855 0.024429195 0.16974993 0.14823811 -0.1473468
-0.10682962 0.054222494 0.14567788 -0.20596112 0.03757396 0.22816624 -0.14946206 -0.023081519
-0.02164032 -0.15235469 0.25179756 -0.022064788 -0.052621786 0.051403176 0.44302306 0.16465332
0.35747266 -0.13487296 -0.36824974 0.06424323 -0.19741455 0.13676487 0.15379997 -0.14251561
-0.34865308 0.0014567398 0.20460027 0.068013 0.10164541 -0.102525264 0.08225976 -0.010108966
0.23877929 -0.21606906 0.018495906 -0.02024113 0.010169973 0.2188884 -0.21770751 -0.017970633
00000000: 9515 b7be 5c59 94bd b1d3 df3c c8a4 c83d
00000010: 0bd5 09be 4c4b 1abd d7f4 2fbc c335 aabd
00000020: 5949 c93c 2178 54bc 6025 863d a206 e7bd
00000030: 198b 4bba 2312 113e b7c0 06be 6017 39bd
00000040: 2f45 ddbd 3524 e8ba f829 cf3c cbd8 babd
00000050: 7f76 b7bd 01f1 11bd 6f3d 01bc d081 ec3a
00000060: 2694 db3d 5a6c cabd 4e09 483d 5f0d a9bc
00000070: bdd9 a53d 7e47 b83d 6382 1b3e a5f8 ac3d
00000080: 0695 613d 8e13 48bd e46d abbd 1994 15bd
00000090: 24de 84be 2b01 f43c 2dde 743d 5323 733d
000000a0: 5d63 34bc 992d 1abe 9002 373e 9245 14bc
000000b0: 5e7f 103d 24c2 10be 4f9a a43d 8f03 593e
000000c0: e6ac bb3c 4486 30be 8b07 3ebe 317a ab3c
000000d0: 7245 0dbc 0448 f93d a7b2 d33c 4d57 4bbd
000000e0: 549f bf3d 5278 013d 7e09 69bc 256c d03c
000000f0: a9b5 4a3d e1a5 e83d 120a 68be e029 16bd
00000100: 3b72 223d dad3 18be 31aa 8fbd f959 983d
00000110: 2cc9 aa3c 44b0 6b3c e21a f3bb 6628 933e
00000120: debe 1bbd ecf8 3e3d ad7b c03c cf49 ca3d
00000130: 0f89 d1bc 8370 893c f3a2 20bd d6b4 14bc
00000140: 0acb 333d 1c05 e43c bfa6 eabd ec79 69bc
00000150: f8ce 593c 4c68 da3d dd18 8b3c da13 c03d
00000160: 728b 45bd c82f 463d 7a80 41be b202 913d
00000170: 4836 7cbc 9457 39b9 01f6 db3c a9a6 2f3b
00000180: 1809 15bd 6f59 a23e b406 aa3c f9db c43b
00000190: 7f86 54bd b617 31bd 7873 71bd b156 673d
000001a0: e334 513c a276 4dbe 904f 00bd f3c7 eb3c
000001b0: 04ed bc3c 9b4d fdbd 5aed 003e a91d 183d
000001c0: 27db 56bd 0f6a 28bd 070c 74bb 1e00 bcbd
000001d0: 2a1c e0bb c40a 383e b964 e53c 1798 b2bd
000001e0: ba96 733d 8a65 073e aac8 d6bc 4814 3bbe
000001f0: 85e9 a6bc c3f0 963c 6340 813e 99df f33d
00000200: 611c 003c e05a c83d 1c70 f93d 8c5f 0bbe
00000210: c035 d13d 5573 a5bd 0e01 d5bd 8499 d9bd
00000220: 8703 403d fe63 4cbe 4af1 7dbd d041 3ebd
00000230: 2a46 93bd 25ee d33c 10d5 debc e886 803d
00000240: 576e 113d 6f4e a83c 580c 67bd 2b67 5e3d
00000250: f465 643c 9427 33be f350 6e3e 7241 873d
00000260: 156d fe3d 0397 f93d 26a0 4c3e 2376 523d
00000270: aec2 7f3d 6eeb 323d aba6 433d 3705 363e
00000280: 88d7 22bd dd14 083e c59a 51be 0fca 383d
00000290: 5d18 2f3e eff4 a3bc cba3 4cbc 4ae8 32bd
000002a0: 05e8 fdbd 0c29 ebbd ab91 f13d 6424 d8bc
000002b0: 35b4 2d3e 3886 05bd 0eec e2bd d4cc 3c3c
000002c0: 597b 9a3d 7d03 813d 55fa a63d d90f 013d
000002d0: 3882 f63d 108e adbd b955 a9bd 3602 483c
000002e0: cd93 6f3d daae 1a3e 660f 49be 984d f73d
000002f0: 5606 3e3d 19f5 ccbd 6d59 533e 5b86 cebd
00000300: 6f92 973d 379b 223e 3058 d8bd e1bd 0a3e
00000310: 5eda 5a3d eb59 203b 0e93 cb3d 9f45 bb3c
00000320: 3215 df3a 34a4 273f 6723 c73d 4929 52bb
00000330: a105 e7be 2b0e 01bf 7539 c13e 539b 803e
00000340: 40fb 9fbd 0f4e bebd 206c 443d a93b b23d
00000350: bc1f c83c edd2 2d3e bbcb 173e 14e2 16be
00000360: 7dc9 dabd 6818 5e3d 952c 153e 79e7 52be
00000370: 27e7 193d 69a4 693e 950c 19be 7415 bdbc
00000380: 0a47 b1bc de02 1cbe 9ceb 803e 37c1 b4bc
00000390: f189 57bd 238c 523d ebd3 e23e e19a 283e
000003a0: a806 b73e 231c 0abe 3b8b bcbe f491 833d
000003b0: 0a27 4abe 170c 0c3e bd7d 1d3e 9def 11be
000003c0: a882 b2be 14f0 be3a bc82 513e 664a 8b3d
000003d0: 782b d03d c4f8 d1bd ce77 a83d 14a0 25bc
000003e0: 8f82 743e 3541 5dbe ba84 973c bad0 a5bc
000003f0: f59f 263c 4824 603e b8ee 5ebe 2637 93bc

rnn.bias_ih_l0 f4 [600]
-0.27015167 -0.09851824 -0.28343326 -0.30068156 -0.26509348 -0.30208766 -0.22605735 -0.3921786
-0.29817778 -0.3159019 -0.27213615 -0.24407165 -0.20306402 -0.35183054 -0.14965117 -0.2734099
-0.2465442 -0.29731017 -0.21403478 -0.28352496 -0.46665126 -0.4225784 -0.28239527 -0.28791332
-0.3328489 -0.34478953 -0.43947434 -0.23332575 -0.3091142 -0.2007976 -0.27263415 -0.18975855
-0.27166098 -0.10544152 -0.19014548 -0.21317498 -0.32709765 -0.33874056 -0.23751225 -0.41052186
-0.15557058 -0.31538212 -0.1451934 -0.15697801 -0.31014755 -0.19199169 -0.15116546 -0.314606
-0.3246112 -0.15675622 -0.37384036 -0.31690183 -0.27297384 -0.35185128 -0.37715456 -0.37019157
-0.37635496 -0.2561701 -0.25971377 -0.28007522 -0.08365321 -0.27960318 -0.57801646 -0.20798808
-0.18538113 -0.21979608 -0.33118325 -0.33433923 -0.18002385 -0.40150526 -0.27473378 -0.35778734
-0.39164546 -0.37658736 -0.24184181 -0.37008432 -0.4868103 -0.34297317 -0.27747017 -0.37832496
-0.4647065 -0.17788604 -0.32730153 -0.4569648 -0.22948882 -0.30930158 -0.18833688 -0.3151033
-0.23709312 -0.38948348 -0.2384687 -0.117066756 -0.22792257 -0.30433306 -0.32697925 -0.3480408
-0.21133873 -0.16338415 -0.33827385 -0.31512383 -0.13135064 -0.4417641 -0.28663814 -0.09842166
-0.38780752 -0.18943284 -0.63762105 -0.5920123 -0.2708023 -0.25332853 -0.21624689 -0.31679723
-0.16377266 -0.16655397 -0.32449588 -0.119628884 -0.3654252 -0.06278882 -0.2797875 -0.28784534
-0.30236045 -0.40862286 -0.35432428 -0.2978404 -0.30420762 -0.05192452 -0.22555865 -0.19494754
-0.22292283 -0.2878361 -0.08537159 -0.24167812 -0.34562 -0.445392 -0.12978715 -0.34249118
-0.26643947 -0.1479667 -0.12128061 -0.2999554 -0.2359855 -0.25020722 -0.44157898 -0.24140579
-0.3263752 -0.1915364 -0.3559956 -0.07579975 -0.43622226 -0.28217062 -0.2566635 -0.16753787
-0.33099487 -0.26241264 -0.2625088 -0.39554352 -0.26756862 -0.39651278 -0.142043 -0.18396513
-0.25875112 -0.1975822 -0.39584735 -0.220805 -0.39954573 -0.27832064 -0.5007913 -0.33708137
-0.2766586 -0.34101105 -0.30883658 -0.27741522 -0.13093023 -0.31776354 -0.45284653 -0.29457107
-0.49321538 -0.3895487 -0.1748588 -0.24375802 -0.2941711 -0.21980257 -0.26974297 -0.12352281
-0.27818742 -0.5654819 -0.26740703 -0.19492717 -0.43150002 -0.2775261 -0.4720551 -0.45919618
-0.20160604 -0.25943995 -0.14195083 -0.14561361 -0.13468677 -0.26623 -0.37446615 -0.40365312
0.03947295 -0.36109146 -0.11280722 -0.023976112 -0.18479513 -0.021764588 -0.19221988 0.13574938
-0.25259286 -0.08646794 0.042622633 -0.28812122 -0.43474975 0.1910247 -0.20146725 -0.046162672
0.099954255 0.5446177 0.0142084565 0.47922084 0.26870453 0.0129775815 0.011506869 0.9434548
-0.6282769 -0.32059246 0.6436569 0.018602597 0.5446772 0.047638863 -0.014912944 0.023115417
0.15043224 0.038036224 -0.039484687 0.013537119 -0.21650222 0.5812957 -0.020318547 0.69813377
-0.15851659 0.29539612 -0.4897532 0.22864026 0.24140775 0.24472918 -0.36716777 0.45762143
0.9634772 0.23596705 0.47817636 0.25516945 -0.10490972 0.16493562 0.04214332 0.084688954
00000000: 5251 8abe eec3 c9bd 2a1e 91be eff2 99be
00000010: 55ba 87be 3cab 9abe 947b 67be a2cb c8be
00000020: c2aa 98be e5bd a1be 6e55 8bbe ebed 79be
00000030: 04f0 4fbe 2223 b4be 283e 19be 62fc 8bbe
00000040: 1576 7cbe 0a39 98be ef2b 5bbe 2f2a 91be
00000050: eaec eebe 325c d8be 1d96 90be 6069 93be
00000060: 2c6b aabe 4188 b0be c802 e1be f2ec 6ebe
00000070: 3744 9ebe e39d 4dbe b496 8bbe 1150 42be
00000080: 2617 8bbe b9f1 d7bd 7fb5 42be 8b4a 5abe
00000090: 5879 a7be 676f adbe 6936 73be ec2f d2be
000000a0: e54d 1fbe c479 a1be 94ad 14be d8be 20be
000000b0: a9cb 9ebe 7899 44be 1ecb 1abe 0a14 a1be
000000c0: 7033 a6be b484 20be 0168 bfbe f540 a2be
000000d0: 3ac3 8bbe da25 b4be 671a c1be c089 bdbe
000000e0: 99b1 c0be ba28 83be 34f9 84be 0566 8fbe
000000f0: 6052 abbd 2628 8fbe e3f8 13bf d4fa 54be
00000100: 8dd4 3dbe 3912 61be da90 a9be 832e abbe
00000110: 2c58 38be 1992 cdbe e8a9 8cbe e72f b7be
00000120: c185 c8be 0fd0 c0be 61a5 77be b17b bdbe
00000130: 333f f9be 2e9a afbe 9210 8ebe cfb3 c1be
00000140: 03ee edbe c227 36be 1194 a7be 4af7 e9be
00000150: 1eff 6abe c75c 9ebe 62db 40be 3855 a1be
00000160: 8ac8 72be 616a c7be 2431 74be b2c0 efbd
00000170: 8964 69be 8bd1 9bbe d369 a7be 6732 b2be
00000180: 2e69 58be 2d4e 27be 3b32 adbe e957 a1be
00000190: c880 06be e72e e2be 3cc2 92be 4c91 c9bd
000001a0: b58e c6be affa 41be 223b 23bf 1e8e 17bf
000001b0: 99a6 8abe 47b4 81be d36f 5dbe 3f33 a2be
000001c0: 05b4 27be 208d 2abe 5324 a6be fdff f4bd
000001d0: 0319 bbbe 6d97 80bd 4f40 8fbe 7760 93be
000001e0: fdce 9abe 0437 d1be fe69 b5be 897e 98be
000001f0: 1ac1 9bbe ceae 54bd d9f8 66be 54a0 47be
00000200: e245 64be 415f 93be 4dd7 aebd 787a 77be
00000210: 1bf5 b0be 6c0a e4be ece6 04be 015b afbe
00000220: c16a 88be 9584 17be f861 f8bd c193 99be
00000230: 2fa6 71be 291b 80be a416 e2be 1433 77be
00000240: a61a a7be 1e22 44be 0e45 b6be e63c 9bbd
00000250: 8658 dfbe ab78 90be 6669 83be 0c8f 2bbe
00000260: 2978 a9be f35a 86be 8e67 86be ae84 cabe
00000270: c1fe 88be b903 cbbe b873 11be 5b61 3cbe
00000280: 077b 84be fd52 4abe 81ac cabe b51a 62be
00000290: 4291 ccbe 0b80 8ebe dc33 00bf ee95 acbe
000002a0: 32a6 8dbe 0099 aebe d41f 9ebe 5e09 8ebe
000002b0: 9312 06be e7b1 a2be 80db e7be 05d2 96be
000002c0: ba86 fcbe ed72 c7be 2f0e 33be b49b 79be
000002d0: 989d 96be ed13 61be c01b 8abe 87f9 fcbd
000002e0: 956e 8ebe 6cc3 10bf 93e9 88be fd9a 47be
000002f0: 92ed dcbe e717 8ebe 35b1 f1be c31b ebbe
00000300: d071 4ebe 50d5 84be 8f5b 11be bc1b 15be
00000310: 54eb 09be 4c4f 88be 07ba bfbe 9fab cebe
00000320: 63ae 213d fbe0 b8be 7907 e7bd 8d69 c4bc
00000330: ef3a 3dbe a64b b2bc 4ad5 44be e301 0b3e
00000340: da53 81be 1a16 b1bd 1295 2e3d a084 93be
00000350: 8597 debe fb9b 433e 6e4d 4ebe 1215 3dbd
00000360: d1b4 cc3d 116c 0b3f 96ca 683c 6f5c f53e
00000370: a493 893e ec9f 543c 4f87 3c3c 4186 713f
00000380: c1d6 20bf b224 a4be b3c6 243f 7964 983c
00000390: f76f 0b3f f820 433d 6c55 74bc 8b5c bd3c
000003a0: e90a 1a3e dfcb 1b3d b2ba 21bd cbca 5d3c
000003b0: c2b2 5dbe cccf 143f 1573 a6bc e5b8 323f
000003c0: 2c52 22be 293e 973e eec0 fabe ac20 6a3e
000003d0: 9833 773e 499a 7a3e 6afd bbbe 5b4d ea3e
000003e0: 71a6 763f 59a1 713e 88d3 f43e 92a5 823e
000003f0: e8da d6bd e2e4 283e 799e 2c3d 6771 ad3d

rnn.bias_hh_l0 f4 [600]
-0.32621375 -0.11827234 -0.21611895 -0.4249725 -0.26316178 -0.2973616 -0.2528461 -0.46656463
-0.16134249 -0.24358654 -0.3665764 -0.2275062 -0.14334843 -0.28586414 -0.26120195 -0.24010193
-0.2059865 -0.3803835 -0.20989262 -0.25953236 -0.35640663 -0.40279275 -0.26479942 -0.30815595
-0.36570966 -0.34969312 -0.40834808 -0.3208848 -0.3126166 -0.2511426 -0.28478503 -0.19761409
-0.21477672 -0.06950315 -0.1371468 -0.08061895 -0.25776288 -0.23248664 -0.24356993 -0.5207968
-0.08451593 -0.2789283 -0.109037675 -0.21037963 -0.289374 -0.18595178 -0.19031307 -0.32106045
-0.31097433 -0.20527121 -0.3535396 -0.35055357 -0.29814205 -0.41891813 -0.2698889 -0.43363652
-0.3787317 -0.2518895 -0.25886053 -0.3092141 -0.11401009 -0.29544508 -0.6289912 -0.2163496
-0.28301314 -0.33014834 -0.32998198 -0.3549701 -0.22314912 -0.33479723 -0.26972097 -0.37950322
-0.27296555 -0.28976387 -0.32140824 -0.44808066 -0.5139627 -0.3491682 -0.36986503 -0.333513
-0.39309955 -0.19266999 -0.36289015 -0.3894347 -0.167457 -0.42767024 -0.21177185 -0.27282572
-0.28837845 -0.40921095 -0.15557681 -0.12858833 -0.19038953 -0.2418538 -0.3188051 -0.3465587
-0.17068852 -0.26066273 -0.2524392 -0.3397183 -0.19047788 -0.41251242 -0.38807827 -0.13999954
-0.39118952 -0.15944792 -0.62419796 -0.6547972 -0.13576111 -0.1700413 -0.18840048 -0.3441935
-0.19158487 -0.20029749 -0.24925159 -0.11571273 -0.35348022 -0.008232824 -0.24610296 -0.29818654
-0.31155238 -0.34785727 -0.41028845 -0.34341365 -0.33057567 -0.056591555 -0.2584442 -0.26666915
-0.17022367 -0.338839 -0.14697999 -0.2042949 -0.33214456 -0.3700385 -0.18188836 -0.36647227
-0.21687421 -0.20218675 -0.13180089 -0.25108466 -0.25779417 -0.2544231 -0.48410073 -0.22983395
-0.24396986 -0.25814253 -0.2845864 -0.16480328 -0.39687836 -0.39258102 -0.24841054 -0.16106723
-0.22536103 -0.15860495 -0.24848613 -0.3581926 -0.3525699 -0.30073807 -0.23731412 -0.130477
-0.20303175 -0.094264865 -0.38039738 -0.22452858 -0.423182 -0.3710723 -0.5024611 -0.33423457
-0.2935864 -0.39597386 -0.2828643 -0.28658682 -0.20436904 -0.29198933 -0.42269474 -0.32124048
-0.5371272 -0.31041366 -0.16142522 -0.20035993 -0.3235577 -0.25078 -0.35288963 -0.16064247
-0.20974967 -0.46256778 -0.2820625 -0.26340196 -0.4027859 -0.3567372 -0.33954936 -0.4465554
-0.2083812 -0.3331715 -0.08613389 -0.22425433 -0.14863004 -0.28631747 -0.31764022 -0.4121226
0.0058064316 -0.2565497 -0.03191071 -0.045884885 -0.06783543 -0.045386706 -0.12207435 0.077144094
-0.33036053 -0.16498592 0.020023677 -0.30622408 -0.47329816 0.18006553 -0.20231709 -0.06250701
0.08410823 0.6145058 0.058100846 0.377217 0.19186534 -0.06304547 0.017321138 0.8832807
-0.6724809 -0.21180153 0.54810655 0.13159193 0.52712876 0.107513495 0.009319963 0.031892497
0.16448875 0.08585668 -0.08379867 0.028261438 -0.3083171 0.45574418 -0.06548629 0.7813624
-0.19055724 0.34605724 -0.40166536 0.13078085 0.3468303 0.35805887 -0.35255873 0.4585729
0.97317964 0.16983293 0.4483829 0.25153652 -0.15540704 0.19517063 0.12972601 0.12879789
00000000: 7d05 a7be c538 f2bd 494e 5dbe ff95 d9be
00000010: 24bd 86be c83f 98be 0b75 81be 8fe1 eebe
00000020: f736 25be c06e 79be e7af bbbe 63f7 68be
00000030: eec9 12be c95c 92be 43bc 85be 48dd 75be
00000040: 20ee 52be a0c1 c2be 17ee 56be 6de1 84be
00000050: ee7a b6be da3a cebe ca93 87be 9ec6 9dbe
00000060: 4c3e bbbe fa0a b3be 0013 d1be 034b a4be
00000070: 480f a0be c395 80be 58cf 91be 595b 4abe
00000080: 6eee 5bbe ab57 8ebd 3670 0cbe 8c1b a5bd
00000090: 7ff9 83be fa10 6ebe 656a 79be f052 05bf
000000a0: b016 adbd b1cf 8ebe 254f dfbd c26d 57be
000000b0: d428 94be 256a 3ebe 6ee1 42be 0962 a4be
000000c0: 0738 9fbe 9e32 52be 2403 b5be c27b b3be
000000d0: 13a6 98be 707c d6be e12e 8abe 9b05 debe
000000e0: 1fe9 c1be a9f7 80be 5e89 84be 4f51 9ebe
000000f0: 1f7e e9bd 9444 97be 9105 21bf c08a 5dbe
00000100: 19e7 90be 3409 a9be 66f3 a8be a4be b5be
00000110: 3481 64be 8b6a abbe de18 8abe 3f4e c2be
00000120: 24c2 8bbe ee5b 94be 9f8f a4be d46a e5be
00000130: 0f93 03bf 2dc6 b2be f35e bdbe 37c2 aabe
00000140: 5844 c9be 484b 45be bdcc b9be fc63 c7be
00000150: d979 2bbe 98f7 dabe b8da 58be d0af 8bbe
00000160: 57a6 93be 1984 d1be 874f 1fbe a9ac 03be
00000170: 79f5 42be 86a8 77be 6c3a a3be 2470 b1be
00000180: f9c8 2ebe 9675 85be b63f 81be 8fef adbe
00000190: a20c 43be d434 d3be 32b2 c6be 0a5c 0fbe
000001a0: fe49 c8be 5146 23be 70cb 1fbf caa0 27bf
000001b0: f604 0bbe 4e1f 2ebe 0eec 40be 213a b0be
000001c0: d32e 44be c91a 4dbe cf3b 7fbe ccfa ecbd
000001d0: 5cfb b4be f7e2 06bc 6a02 7cbe e8ab 98be
000001e0: cb83 9fbe 591a b2be 5411 d2be ead3 afbe
000001f0: 3741 a9be 8ccc 67bd cc52 84be dc88 88be
00000200: 1d4f 2ebe 4e7c adbe ec81 16be af32 51be
00000210: da0e aabe b075 bdbe f140 3abe 41a2 bbbe
00000220: 4614 5ebe 0b0a 4fbe d0f6 06be 2b8e 80be
00000230: 99fd 83be bf43 82be 0ddc f7be 9759 6bbe
00000240: 3cd3 79be 422b 84be 4fb5 91be 31c2 28be
00000250: a433 cbbe 6100 c9be 555f 7ebe cfee 24be
00000260: 0bc5 66be 5669 22be 2673 7ebe 0565 b7be
00000270: 0b84 b4be 57fa 99be 7902 73be c39b 05be
00000280: 8ee7 4fbe f00d c1bd 72c3 c2be d2ea 65be
00000290: 50ab d8be 30fd bdbe 4aa1 00bf cb20 abbe
000002a0: f550 96be 16bd cabe 97d3 90be 82bb 92be
000002b0: 1e46 51be a07f 95be 726b d8be a279 a4be
000002c0: 2b81 09bf 8aee 9ebe a74c 25be 272b 4dbe
000002d0: 5ba9 a5be 3c66 80be f3ad b4be 767f 24be
000002e0: 9ec8 56be afd5 ecbe 7f6a 90be 9fdc 86be
000002f0: f439 cebe 42a6 b6be 6ad9 adbe e9a2 e4be
00000300: e261 55be 7495 aabe f766 b0bd eda2 65be
00000310: 7932 18be 3498 92be bda1 a2be bc01 d3be
00000320: e143 be3b 7b5a 83be ceb4 02bd caf1 3bbd
00000330: 4ded 8abd 69e7 39bd 1e02 fabd b9fd 9d3d
00000340: 0425 a9be 12f2 28be b208 a43c 67c9 9cbe
00000350: 2354 f2be 1963 383e 362c 4fbe ad03 80bd
00000360: f040 ac3d 4150 1d3f 27fb 6d3d 9622 c13e
00000370: 5978 443e fc1d 81bd 0fe5 8d3c af1e 623f
00000380: b527 2cbf 80e2 58be b650 0c3f 09c0 063e
00000390: e9f1 063f 0930 dc3d c2b2 183c b5a1 023d
000003a0: bd6f 283e a1d5 af3d a39e abbd 8884 e73c
000003b0: bddb 9dbe 4d57 e93e ad1d 86bd 5e07 483f
000003c0: 7021 43be 6a2e b13e 15a7 cdbe 6aeb 053e
000003d0: be93 b13e 7e53 b73e 9482 b4be 11ca ea3e
000003e0: 4d22 793f afe8 2d3e 7292 e53e 65c9 803e
000003f0: 0623 1fbe cfda 473e e5d6 043e 98e3 033e

l1.weight f4 [300, 200]
-0.0645638 0.047317162 -0.16214053 0.06738959 0.04791627 0.07337687 0.16053577 0.041074302
0.028992409 -0.077824034 -0.20402569 -0.024440859 0.26803493 0.014513478 0.02639394 0.061022446
-0.18249561 0.021002337 -0.14016858 -0.06627888 -0.0011518367 0.10165391 0.1341874 -0.028637106
-0.18033026 0.07106621 0.016693572 0.13181807 -0.12525186 -0.099216476 -0.17486219 0.15908581
-0.11167546 -0.022887766 0.074542 -0.010557576 -0.11303368 0.004223969 0.07043449 0.033611257
-0.03502686 0.0038066104 -0.045055516 -0.17252415 -0.037962914 -0.1299707 -0.024699735 -0.047920108
0.07004733 0.03812865 0.09500946 -0.035824127 0.018007122 0.028850008 -0.024084425 0.025445582
0.027177503 -0.0263964 0.06374197 0.004228603 -0.05457259 -0.008448152 -0.0019961123 0.027027478
0.004438707 0.013626116 0.0019805722 -0.085358106 0.095915824 0.0047868937 -0.055729024 -0.12350161
-0.035176642 0.023813331 -0.044226598 -0.048647575 0.020482136 -0.08107196 0.09973839 0.10158736
0.08139497 0.14055511 -0.0064430884 0.12953033 0.0029571482 0.12691766 -0.16050597 -0.08596123
-0.09086447 -0.108267896 0.018869238 -0.0363612 0.061689004 -0.002374806 -0.13508616 -0.15931611
0.1970863 -0.11822187 -0.187742 -0.008483584 -0.024184458 0.072943814 0.35452366 0.016689565
-0.013444057 0.005287476 0.06901589 0.0076574846 0.038314935 0.03386842 -0.15090255 -0.024442805
0.031950936 0.07343729 0.13070443 0.0010795235 -0.107947 -0.015207713 0.023297938 0.15034856
-0.14662182 -0.08765451 0.07337727 0.3669573 -0.09056024 0.03787875 -0.14826046 0.012048774
-0.08743699 0.1309322 -0.07960581 0.051112548 -0.02749071 0.061655264 -0.11865175 -0.12128224
-0.0033243196 0.27121288 -0.1252751 -0.01479407 0.101106115 -0.12935235 -0.12950662 0.105212905
-0.037598733 -0.06409174 0.05483078 0.00020587664 -0.098960616 -0.09291179 -0.012536221 0.02633211
0.21271852 0.091631204 0.039785452 0.04149797 -0.029192237 0.055874582 -0.069079295 0.110924296
-0.023283064 0.0098998 -0.022495972 -0.03329949 0.09638474 -0.02009698 0.0054899454 0.06396547
0.12548403 0.027218185 -0.051099323 0.12447206 -0.07139619 -0.057641204 0.21771826 -0.11682141
-0.051481035 0.063369 0.09082508 0.0045945854 0.13346314 0.11144541 -0.3069715 -0.028892044
-0.0918663 0.011009333 -0.19338316 -0.0015027362 0.047160324 -0.045388382 -0.11013701 0.09326523
-0.030823734 -0.041264307 -0.20552044 -0.0916377 -0.13679262 0.08904025 -0.113095805 -0.012392994
-0.055713393 -0.028766476 -0.015447886 0.0778273 0.08162318 0.39535022 -0.0089293225 0.14145857
-0.10184299 -0.0048184893 -0.15220451 -0.087133214 0.32239214 0.038520124 0.08276169 0.19666985
-0.10592754 -0.013799978 -0.086873926 -0.025102021 0.239499 0.22039324 0.2502811 -0.08623697
-0.30830368 0.06368588 0.027619854 0.1841843 -0.16219936 -0.2353281 -0.2959819 0.12976898
-0.22423194 -0.1003738 0.2100308 0.10712043 0.07971427 0.054250147 0.09355669 -0.072865024
-0.02000075 -0.03398818 -0.05236852 -0.034266237 -0.032972682 -0.14076139 -0.004721367 -0.19250937
0.095017776 0.024585089 0.1100346 0.012577129 0.10750672 -0.0021785179 -0.06046081 -0.1541415
00000000: 073a 84bd a4cf 413d 2b08 26be 8e03 8a3d
00000010: da43 443d 9d46 963d 7d63 243e 873d 283d
00000020: 7d81 ed3c 3562 9fbd 1cec 50be 3238 c8bc
00000030: e03b 893e f0c9 6d3c 1b38 d83c acf2 793d
00000040: 21e0 3abe 180d ac3c 5a88 0fbe 39bd 87bd
00000050: 3af9 96ba ed2f d03d 6c68 093e 5d98 eabc
00000060: 7fa8 38be 298b 913d f5c0 883c 51fb 063e
00000070: 0642 00be 0232 cbbd 130f 33be 64e7 223e
00000080: 1bb6 e4bd 207f bbbc 7aa9 983d aff9 2cbc
00000090: 347e e7bd 3869 8a3b f53f 903d f5ab 093d
000000a0: 5378 0fbd 5378 793b 228c 38bd 2caa 30be
000000b0: 007f 1bbd 0a17 05be 1957 cabc e047 44bd
000000c0: f974 8f3d ca2c 1c3d 5294 c23d 52bc 12bd
000000d0: ac83 933c da56 ec3c b34c c5bc 4173 d03c
000000e0: 5ba3 de3c 433d d8bc 268b 823d 1890 8a3b
000000f0: 8287 5fbd 1e6a 0abc 35d1 02bb bb68 dd3c
00000100: 9372 913b 1340 5f3c 7dcc 013b 3bd0 aebd
00000110: 846f c43d 60db 9c3b 1e44 64bd 69ee fcbd
00000120: 6215 10bd 2d14 c33c f326 35bd ae42 47bd
00000130: 27ca a73c 0e09 a6bd a443 cc3d 090d d03d
00000140: 68b2 a63d aeed 0f3e 8b20 d3bb 99a3 043e
00000150: b7cc 413b b4f6 013e ad5b 24be 710c b0bd
00000160: 2717 babd 8fbb ddbd a993 9a3c 7bef 14bd
00000170: 9cad 7c3d a2a2 1bbb 0754 0abe c323 23be
00000180: fed0 493e 4f1e f2bd 703f 40be bbfe 0abc
00000190: 7c1e c6bc 9163 953d 2084 b53e 8eb8 883c
000001a0: 7644 5cbc 9042 ad3b 3458 8d3d a3eb fa3b
000001b0: 1ff0 1c3d 9db9 0a3d 3386 1abe 473c c8bc
000001c0: fcde 023d 4a66 963d 62d7 053e cc7e 8d3a
000001d0: 5113 ddbd c529 79bc 51db be3c f9f4 193e
000001e0: 0824 16be 3584 b3bd d246 963d d4e1 bb3e
000001f0: a677 b9bd c026 1b3d 97d1 17be 3968 453c
00000200: 2a12 b3bd 1713 063e 5f08 a3bd 645b 513d
00000210: 3334 e1bc 3b8a 7c3d b0ff f2bd d362 f8bd
00000220: d4dc 59bb 6adc 8a3e 1e48 00be d462 72bc
00000230: b910 cf3d f174 04be 629d 04be dd79 d73d
00000240: 2101 1abd 8842 83bd 3d96 603d 97e0 5739
00000250: ddab cabd 8948 bebd b964 4dbc 70b6 d73c
00000260: e2d2 593e 24a9 bb3d 12f6 223d c7f9 293d
00000270: 8f24 efbc bfdc 643d 7279 8dbd 472c e33d
00000280: 20bc bebc c532 223c 7949 b8bc 0c65 08bd
00000290: 5d65 c53d 6ca2 a4bc 00e5 b33b 5400 833d
000002a0: e37e 003e acf8 de3c 864d 51bd 35eb fe3d
000002b0: 2a38 92bd 2f19 6cbd 89f1 5e3e 1040 efbd
000002c0: c7dd 52bd 9bc7 813d 8002 ba3d 2d8e 963b
000002d0: 90aa 083e 7e3d e43d 5e2b 9dbe 02af ecbc
000002e0: 6624 bcbd 7d60 343c 3c06 46be 76f7 c4ba
000002f0: 2f2b 413d 2be9 39bd 838f e1bd d701 bf3d
00000300: 0e82 fcbc c304 29bd f373 52be 8cac bbbd
00000310: 5d13 0cbe bc5a b63d c69e e7bd fc0b 4bbc
00000320: ba33 64bd aca7 ebbc 2119 7dbc eb63 9f3d
00000330: 0e2a a73d 586b ca3e 4b4c 12bc 84da 103e
00000340: 0f93 d0bd 6be4 9dbb 80db 1bbe e672 b2bd
00000350: 9510 a53e 47c7 1d3d f67e a93d d263 493e
00000360: 8af0 d8bd 4e19 62bc f5ea b1bd c1a2 cdbc
00000370: 3a3f 753e c4ae 613e d824 803e 029d b0bd
00000380: fbd9 9dbe be6d 823d 0843 e23c cf9a 3c3e
00000390: 9717 26be d9f9 70be f18a 97be 29e2 043e
000003a0: 0f9d 65be c790 cdbd 5012 573e f561 db3d
000003b0: 3c41 a33d 6735 5e3d a69a bf3d 423a 95bd
000003c0: 9dd8 a3bc 3137 0bbd 6080 56bd c15a 0cbd
000003d0: 5d0e 07bd c123 10be b2b5 9abb 2d21 45be
000003e0: ae98 c23d ab66 c93c d259 e13d 4d10 4e3c
000003f0: 7c2c dc3d 77c5 0ebb c1a5 77bd 45d7 1dbe

l1.bias f4 [300]
-0.12631942 -0.17106427 -0.071422175 -0.11405682 -0.14105956 -0.16136461 -0.090476856 -0.11884373
-0.100615405 -0.1957051 -0.15115815 -0.12336912 -0.09788371 -0.03415716 -0.09142262 -0.039106473
-0.13821816 -0.111957476 0.013793635 -0.04126136 -0.057514984 -0.053212702 -0.16369796 -0.0830689
-0.055202164 -0.13338263 -0.1633799 0.00031039905 -0.06767229 -0.08671011 -0.15319322 -0.13603899
-0.037128735 -0.07615801 -0.06728365 -0.10900458 -0.060553506 -0.015797326 -0.101756305 -0.14355965
-0.15540087 -0.15508983 -0.082293525 -0.119602546 -0.13324301 -0.039743885 -0.1561032 -0.0675647
-0.17529318 -0.15351442 -0.14441724 -0.025518376 -0.027868638 -0.0539989 -0.034813087 -0.076855205
-0.15991054 -0.0956322 -0.12593333 -0.13589336 -0.049696967 -0.039535742 -0.15339366 -0.12586492
-0.020155227 -0.1650514 -0.14849122 -0.022259379 -0.065580174 -0.0016478504 -0.15986879 -0.108738765
-0.17321701 -0.049476855 -0.032924496 -0.072263725 -0.11417055 0.0005036744 -0.16147962 -0.11337958
-0.046058472 -0.00152812 -0.15015803 -0.12179265 -0.11422994 -0.06969493 -0.11696904 -0.121476725
-0.12519455 -0.045017272 -0.1277188 -0.041032474 -0.1392313 -0.10720392 -0.15721707 -0.071932994
-0.11636852 -0.10750174 -0.1282439 -0.036792565 -0.14275517 -0.033615924 -0.17517288 -0.025323262
-0.077085085 -0.016025215 -0.10851211 -0.11302466 -0.10524175 -0.11002321 -0.08066144 -0.0945013
-0.066331886 -0.15053022 -0.12429666 -0.13275103 -0.19391754 -0.072824605 -0.13733062 -0.06753771
-0.14103644 -0.038231958 -0.027676646 -0.0004119653 -0.11685482 -0.13354298 -0.15247156 -0.11123863
-0.08635534 -0.17711696 -0.13856223 -0.13805214 -0.13222727 -0.15849681 -0.14430219 -0.0962867
-0.14187303 -0.10643298 -0.108600825 -0.08143972 -0.13896985 -0.15956311 -0.1294786 -0.14213413
-0.12943387 -0.1539649 -0.14761196 -0.12119889 -0.15558775 -0.067708746 -0.09921465 -0.044600032
-0.063977905 -0.1292406 -0.12560171 -0.017421296 -0.13775183 -0.15269303 -0.038127426 -0.12189611
-0.09830425 -0.13598537 -0.09150695 -0.15169922 -0.12589407 0.01579246 -0.15635036 -0.035175793
-0.15426734 -0.10227627 -0.111354224 -0.14158422 -0.07358114 -0.12057789 -0.13679823 -0.04164445
-0.10215402 -0.15226044 -0.03885461 -0.012921185 -0.14461887 -0.030658219 -0.15088709 0.0036370764
-0.13157913 -0.15438826 -0.11960969 -0.041534092 -0.021745654 -0.18106472 -0.07021442 -0.14141499
-0.034110945 -0.17081062 -0.13255775 -0.12288145 -0.06893202 -0.1569322 -0.008210343 -0.07688085
-0.14852338 -0.07693027 -0.10414957 -0.032726664 -0.09014877 -0.039591 -0.114351556 -0.12897104
-0.13883547 -0.10993444 -0.06877891 -0.030343074 -0.1072522 -0.06901657 -0.14768015 -0.037975926
-0.10731807 -0.12846868 -0.1366521 -0.12254467 -0.08079247 -0.14277671 -0.12196101 -0.13763681
-0.14232844 -0.010174222 -0.017760849 -0.119845025 -0.03244179 -0.03679923 -4.297625e-05 -0.16381672
-0.1567411 -0.041246463 -0.069678366 -0.14106186 -0.06461008 -0.005881416 -0.17726986 -0.14838116
-0.11098988 -0.101073906 -0.01559626 -0.15705933 -0.10919349 -0.13561426 -0.044366147 -0.10129967
-0.14724071 -0.042262275 -0.11252537 -0.013753957 -0.09674383 -0.10721884 -0.036058486 -0.13419937
00000000: e159 01be 792b 2fbe ca45 92bd 9f96 e9bd
00000010: eb71 10be c43c 25be ee4b b9bd 5764 f3bd
00000020: 730f cebd eb66 48be 34c9 1abe f3a8 fcbd
00000030: 4177 c8bd 61e8 0bbd c83b bbbd 1c2e 20bd
00000040: 1089 0dbe f649 e5bd b3fe 613c ac01 29bd
00000050: d594 6bbd 90f5 59bd 70a0 27be 0720 aabd
00000060: aa1b 62bd 7595 08be 0f4d 27be 0ebd a239
00000070: c597 8abd 1295 b1bd afde 1cbe ce4d 0bbe
00000080: 4d14 18bd bbf8 9bbd 03cc 89bd cb3d dfbd
00000090: f406 78bd 6569 81bc 9c65 d0bd 4d01 13be
000000a0: 6821 1fbe decf 1ebe 8289 a8bd 2ef2 f4bd
000000b0: db70 08be 7cca 22bd 84d9 1fbe 5d5f 8abd
000000c0: 0e80 33be e232 1dbe 1de2 13be ea0b d1bc
000000d0: c54c e4bc f32d 5dbd 2b98 0ebd 4366 9dbd
000000e0: 97bf 23be d1da c3bd abf4 00be a127 0bbe
000000f0: 0c8f 4bbd 3bf0 21bd 3a13 1dbe bce2 00be
00000100: 931c a5bc 3c03 29be 150e 18be 4d59 b6bc
00000110: e64e 86bd affc d7ba a5b4 23be 6eb2 debd
00000120: cd5f 31be 3ea8 4abd d6db 06bd 01ff 93bd
00000130: 40d2 e9bd 0409 043a ea5a 25be 8e33 e8bd
00000140: cfa7 3cbd 334b c8ba 07c3 19be 6d6e f9bd
00000150: 63f1 e9bd 37bc 8ebd 778d efbd cac8 f8bd
00000160: 0033 00be 0864 38bd b8c8 02be ab11 28bd
00000170: a692 0ebe bb8d dbbd 83fd 20be 9b51 93bd
00000180: 9e52 eebd df29 dcbd 5e52 03be cdb3 16bd
00000190: 692e 12be dab0 09bd 8560 33be bb72 cfbc
000001a0: c9de 9dbd 5047 83bc 993b debd 7979 e7bd
000001b0: fd88 d7bd d953 e1bd d331 a5bd e689 c1bd
000001c0: 03d9 87bd 9824 1abe 3f8f febd e3ef 07be
000001d0: 5292 46be 1125 95bd 66a0 0cbe 3651 8abd
000001e0: db6b 10be 1d99 1cbd 22ba e2bc 0cfd d7b9
000001f0: 9451 efbd 7ebf 08be 8121 1cbe 14d1 e3bd
00000200: 12db b0bd 265e 35be 42e3 0dbe 8a5d 0dbe
00000210: 9666 07be fd4c 22be f4c3 13be f631 c5bd
00000220: 2a47 11be 89f9 d9bd 1c6a debd dec9 a6bd
00000230: 1d4e 0ebe 8364 23be 0a96 04be 9c8b 11be
00000240: 508a 04be faa8 1dbe 9727 17be 2037 f8bd
00000250: 6552 1fbe e2aa 8abd 0d31 cbbd 86ae 36bd
00000260: d906 83bd a657 04be bc9d 00be 1bb7 8ebc
00000270: d10e 0dbe 905b 1cbe 812b 1cbd aba4 f9bd
00000280: bd53 c9bd c03f 0bbe ff67 bbbd 0a57 1bbe
00000290: 60ea 00be 305f 813c 4f1a 20be 7e14 10bd
000002a0: 42f8 1dbe 3976 d1bd af0d e4bd 74fb 10be
000002b0: b5b1 96bd 8af1 f6bd d614 0cbe 5f93 2abd
000002c0: 2036 d1bd 29ea 1bbe 0326 1fbd 61b3 53bc
000002d0: f816 14be f226 fbbc 2582 1abe 045c 6e3b
000002e0: aebc 06be f517 1ebe edf5 f4bd a71f 2abd
000002f0: f123 b2bc 0869 39be 94cc 8fbd 17cf 10be
00000300: ebb7 0bbd fbe8 2ebe 38bd 07be 45a9 fbbd
00000310: 3b2c 8dbd d6b2 20be ad84 06bc b573 9dbd
00000320: 8316 18be 9e8d 9dbd 5f4c d5bd 650c 06bd
00000330: eb9f b8bd 2c2a 22bd 2631 eabd fc10 04be
00000340: e32a 0ebe 4f25 e1bd f5db 8cbd 0a92 f8bc
00000350: 0ba7 dbbd 8f58 8dbd 7739 17be a58c 1bbd
00000360: 94c9 dbbd 4b8d 03be 87ee 0bbe b3f8 fabd
00000370: 8676 a5bd 0f34 12be b2c6 f9bd aaf0 0cbe
00000380: 8cbe 11be c8b1 26bc 337f 91bc 4f71 f5bd
00000390: afe1 04bd caba 16bd 6641 34b8 92bf 27be
000003a0: bd80 20be 0df2 28bd 88b3 8ebd 8572 10be
000003b0: 4a52 84bd e5b8 c0bb 3b86 35be 3bf1 17be
000003c0: aa4e e3bd d6ff cebd 7587 7fbc 29d4 20be
000003d0: d6a0 dfbd 77de 0abe 47b9 35bd 3476 cfbd
000003e0: 45c6 16be 351b 2dbd b473 e6bd 4758 61bc
000003f0: a121 c6bd 8d95 dbbd 10b2 13bd 8f6b 09be

l2.weight f4 [200, 300]
-0.06450355 0.04191832 0.03932613 -0.08836465 0.030851401 -0.0415196 -0.049122818 -0.03042207
0.010177454 -0.049060084 -0.013964181 -0.0403559 0.012036452 -0.035287026 -0.034877717 0.0056786374
0.054179583 -0.0820003 -0.06821071 0.11169788 0.06291106 -0.026955722 0.008038341 -0.11317252
0.009060519 -0.06430724 0.12674625 0.01689523 -0.07048657 -0.012820232 -0.12386118 0.06302281
0.03555467 0.06125461 -0.00900475 0.003763583 0.004169223 0.037031945 -0.044390943 -0.028126242
-0.023345701 0.025747705 -0.057345107 -0.050121978 -0.060685273 0.15142873 0.10925569 0.021349326
0.03311092 -0.037578758 -0.052917033 0.017297857 -0.015475134 0.0029365874 0.10105846 0.011728645
-0.050719038 -0.06452707 0.024767697 -0.027192336 0.0086247325 0.014042841 0.008167998 -0.04615207
0.041261677 0.049678072 -0.03821051 -0.03235436 0.029449858 0.02749663 0.14509705 -0.058229323
-0.029653152 -0.077126086 -0.020636 -0.025186297 -0.07749687 -0.0073005 -0.07695162 -0.019658688
-0.0032632414 -0.01310363 -0.01173567 -0.11101923 -0.023319881 -0.009164464 -0.008918718 0.039617386
0.051765535 0.015245862 -0.050485875 0.049895618 -0.008772103 -0.07776678 0.10011575 -0.04788556
0.10644967 0.029736292 -0.069452204 0.019379517 -0.0754252 0.015923755 -0.15138586 0.020504784
-0.054844353 0.0037543166 -0.023456844 0.019924214 -0.02696321 0.042593487 -0.022063525 0.024046523
0.06277311 -0.003571701 0.016865697 -0.010861436 -0.023968384 -0.0057361303 0.03982856 0.06515215
-0.11528981 -0.014312541 0.050291292 0.024760446 -0.040436763 0.02068487 0.06922595 0.024606986
0.018747825 0.04810866 -0.022907028 -0.032001797 0.04399173 0.12250011 0.02100216 -0.061324798
0.1273807 -0.089710094 -0.0013760277 0.029489418 -0.0764976 0.091471076 -0.10545446 0.019375505
0.07150887 0.022046762 0.034609612 0.090661906 0.06509336 -0.006825223 -0.015755553 -0.03048571
0.0006832223 0.13596302 0.045405302 -0.039791483 -0.039448626 -0.07560804 -0.10471202 -0.012148075
-0.022450607 -0.04105772 -0.021566035 -0.056150243 -0.09311166 0.008313332 -0.17894761 0.09059427
-0.07434582 0.00318513 0.031340804 0.045946755 -0.023732435 -0.053939667 -0.09801366 0.12075484
0.13692515 0.07387752 -0.0045741475 -0.029849745 -0.09454498 -0.01368896 -0.058548238 -0.04700156
0.1229722 -0.12545352 0.15276967 0.035319626 0.054186266 -0.059902165 -0.056904506 0.041681312
-0.024685206 0.052970257 -0.03535766 -0.11543999 0.0041041505 0.046080243 -0.037199188 0.11183981
0.07385278 0.038428616 0.009321033 -0.0027654856 0.054861262 0.05654877 0.015683716 0.059199177
-0.013056707 0.0088106375 -0.040965002 -0.06354261 0.092749506 -0.050247982 -0.029723613 0.039820906
0.06921018 -0.013248454 0.07030168 -0.0097554475 -0.000299639 0.105741665 -0.03972324 0.090969555
-0.030089784 -0.04297724 -0.023925116 0.07246736 -0.08553101 -0.03181326 0.02865207 -0.022756096
-0.031447563 -0.02459983 -0.09380832 0.07132948 0.024618816 0.079890266 0.1562196 -0.041115057
-0.0077000153 0.028824694 -0.069573045 0.02919846 0.06675097 -0.037806094 -0.09336151 -0.011852238
-0.03699475 -0.021282064 0.0036899755 -0.033648305 0.007940546 0.019339448 0.03389076 -0.03132885
00000000: 701a 84bd 8bb2 2b3d 7014 213d 87f8 b4bd
00000010: 14bc fc3c 7510 2abd 0235 49bd b437 f9bc
00000020: 56bf 263c 3af3 48bd 05ca 64bc 3a4c 25bd
00000030: 8a34 453c 2189 10bd f0db 0ebd dd13 ba3b
00000040: 69eb 5d3d c6ef a7bd 0fb2 8bbd dcc1 e43d
00000050: 84d7 803d 3fd2 dcbc 3fb3 033c ffc6 e7bd
00000060: 9272 143c 84b3 83bd c5c9 013e de67 8a3c
00000070: 435b 90bd f30b 52bc eeaa fdbd 1a12 813d
00000080: c6a1 113d 1de6 7a3d a988 13bc 72a6 763b
00000090: fa9d 883b cfae 173d 47d3 35bd 0169 e6bc
000000a0: 7c3f bfbc daec d23c b4e2 6abd b44c 4dbd
000000b0: 1f91 78bd 2210 1b3e 72c1 df3d c8e4 ae3c
000000c0: 519f 073d 2fec 19bd 88bf 58bd 3cb4 8d3c
000000d0: 6b8b 7dbc c373 403b bdf7 ce3d 8129 403c
000000e0: c4be 4fbd c526 84bd a0e5 ca3c 76c2 debc
000000f0: c04e 0d3c f213 663c 11d3 053c f409 3dbd
00000100: 0102 293d 3c7b 4b3d a082 1cbd 0186 04bd
00000110: d440 f13c 9d40 e13c 5294 143e df81 6ebd
00000120: 2beb f2bc 48f4 9dbd d40c a9bc 7e53 cebc
00000130: aeb6 9ebd 0839 efbb d098 9dbd 420b a1bc
00000140: 1bdc 55bb 9cb0 56bc f846 40bc 0d5e e3bd
00000150: 5609 bfbc 8c26 16bc d11f 12bc d745 223d
00000160: 1908 543d c8c9 793c 47ca 4ebd 595f 4c3d
00000170: deb8 0fbc 3144 9fbd 7d09 cd3d a623 44bd
00000180: 4902 da3d 8699 f33c f53c 8ebd cbc1 9e3c
00000190: 8778 9abd 8972 823c e504 1bbe a6f9 a73c
000001a0: 79a4 60bd fb0a 763b 9128 c0bc 1b38 a33c
000001b0: f3e1 dcbc 8276 2e3d 91be b4bc 37fd c43c
000001c0: 308f 803d 3313 6abb ee29 8a3c 2af4 31bc
000001d0: 5859 c4bc 26f6 bbbb 4623 233d 7e6e 853d
000001e0: 101d ecbd 267f 6abc 3efe 4d3d 6bd6 ca3c
000001f0: 05a1 25bd 5173 a93c 56c6 8d3d 9794 c93c
00000200: 0a95 993c 960d 453d 85a7 bbbc 5114 03bd
00000210: ac30 343d 56e1 fa3d b90c ac3c b62f 7bbd
00000220: 1670 023e edb9 b7bd d45b b4ba cb93 f13c
00000230: c6aa 9cbd 3055 bb3d 82f8 d7bd 61b9 9e3c
00000240: 3e73 923d 699b b43c cfc2 0d3d f3ac b93d
00000250: ab4f 853d 1fa6 dfbb ca11 81bc 2bbd f9bc
00000260: 461a 333a e439 0b3e e9fa 393d 65fc 22bd
00000270: e294 21bd 63d8 9abd 4173 d6bd b808 47bc
00000280: 56ea b7bc 242c 28bd 41ab b0bc ccfd 65bd
00000290: 53b1 bebd a434 083c 0b3e 37be 7d89 b93d
000002a0: 9f42 98bd 9dbd 503b 375f 003d aa32 3c3d
000002b0: 866a c2bc d7ef 5cbd 63bb c8bd 504e f73d
000002c0: 1b36 0c3e 194d 973d bbe2 95bb 7487 f4bc
000002d0: cca0 c1bd a947 60bc 47d0 6fbd b584 40bd
000002e0: d9d8 fb3d e376 00be a76f 1c3e 50ab 103d
000002f0: 6bf2 5d3d f95b 75bd b314 69bd 06ba 2a3d
00000300: a138 cabc 57f7 583d 32d3 10bd cd6b ecbd
00000310: 1c7c 863b a3be 3c3d 2d5e 18bd 450c e53d
00000320: 2040 973d 5367 1d3d 3fb7 183c 263d 35bb
00000330: 34b6 603d af9f 673d 237b 803c d67a 723d
00000340: cceb 55bc 7e5a 103c ebca 27bd a122 82bd
00000350: 74f3 bd3d d4d0 4dbd ef7e f3bc 3f1b 233d
00000360: 11be 8d3d 0b10 59bc 54fa 8f3d 50d5 1fbc
00000370: de18 9db9 168f d83d d6b4 22bd 3f4e ba3d
00000380: da7e f6bc e708 30bd 9bfe c3bc c469 943d
00000390: e22a afbd 9f4e 02bd bfb7 ea3c fe6a babc
000003a0: 29cf 00bd 9585 c9bc 941e c0bd 3115 923d
000003b0: 66ad c93c 829d a33d 08f8 1f3e 4368 28bd
000003c0: 6950 fcbb c421 ec3c 507c 8ebd 9c31 ef3c
000003d0: bcb4 883d 90da 1abd 5234 bfbd e42f 42bc
000003e0: cf87 17bd b957 aebc 84d3 713b ced2 09bd
000003f0: 1019 023c c36d 9e3c 0ad1 0a3d ae52 00bd

l2.bias f4 [200]
0.00063033757 0.000882068 0.000850982 0.006998342 -0.0036617108 0.0074302987 0.006326078 0.0025482404
0.015653213 0.00025950698 -0.0020907323 -0.007873447 -0.0044774185 -0.0020031757 -0.0061966996 0.00096059876
0.011497633 0.0016824639 -0.008226074 -0.008179489 -0.008208152 -0.0025933792 0.0017949326 0.005969943
-0.008140082 -0.003529835 0.009080283 -0.0010734816 0.0050556003 -0.005547103 -0.012173443 0.0032716135
0.004265194 0.0020449928 -0.0046684803 0.0056697717 -0.0014707412 0.0022749903 0.0051256185 -0.004864555
0.0019965163 -0.00026920007 0.0018215348 0.0024452093 0.00010063948 0.006744523 0.0025058417 0.0063276407
0.00046768933 -0.0032355152 0.0065246755 -0.0001816789 -0.0017309122 0.00051836367 -0.0006559843 0.0066300076
0.0027540575 -0.0053096516 0.0008712336 -0.01149693 -0.004946887 -0.0072125425 -0.008130247 0.0051682987
0.00667197 0.0038585935 0.009211719 0.0015925352 -0.016229749 -0.00085270207 0.0024691299 0.0007905136
-0.0056985533 -0.0029876411 0.005442651 0.004408287 0.010735407 -0.003229308 0.015023156 -0.00060311035
0.0015878257 0.0042029405 0.003896708 0.0036013592 0.0016455112 0.008284958 0.015477994 -0.00012597031
-0.0040975832 0.004276684 0.0008480993 -0.0029676675 0.008027394 0.00094917713 -0.0046787676 -0.004663512
-0.0015582233 -0.0038491457 0.00902536 0.0029958405 -0.010415686 0.0024203155 -0.007852466 -0.0078016957
0.0056314385 0.00086163095 -0.0052310554 -0.004087483 -0.0027232533 -5.837874e-05 0.007576678 0.02785574
0.010753931 -0.007318917 0.0022059677 -0.0049726036 -0.0012340553 -0.004367089 -0.0026277087 0.0075018005
-0.010651215 -0.003946088 0.00067485886 0.0017954905 -0.00621183 -0.0024554792 -0.002596445 0.00025492566
0.012141309 -0.0045019872 0.011927301 0.0019559257 -0.0027521327 -0.006512901 0.01421063 0.0070633013
0.001244078 -0.0009529394 0.009422696 -0.012154888 -0.0041352846 -0.012044138 0.00087081926 0.0043596295
0.010726724 0.0024695348 -0.005119397 -0.0023594836 0.009251891 0.0005229696 0.0015528074 0.0043241573
0.0030812682 -0.0061434326 0.0051112757 -0.004486476 0.0030150025 0.0011729788 0.0072001293 -0.0045465976
-0.029720247 0.002036289 0.012619367 -0.0063915346 -0.00032619317 -0.008180124 -0.0005298135 -0.0092187775
0.01667128 0.0018191733 0.0029338896 -0.009420791 -0.0041466043 -0.003006303 -0.0011411854 -0.00021536658
-0.027768064 0.003083136 0.0064786575 0.0021735437 0.0053555225 -0.0052351244 0.0031591721 0.004038839
-0.010422512 0.0057473034 0.0018910101 0.0073872646 0.0036550867 0.0044312924 -0.010479679 -0.0034287183
-0.006146631 -0.004860143 0.0082921265 0.012536223 0.0032914192 -0.0003426739 0.009293117 -0.0045658327
00000000: 3d3d 253a 953a 673a 6f14 5f3a 5952 e53b
00000010: 50f9 6fbb dd79 f33b fd4a cf3b 6100 273b
00000020: 2b3b 803c 700e 8839 ab04 09bb a1ff 00bc
00000030: 4fb7 92bb b647 03bb af0d cbbb b1d0 7b3a
00000040: 9160 3c3c 1f86 dc3a a8c6 06bc 4303 06bc
00000050: 7c7b 06bc aff5 29bb f243 eb3a 839f c33b
00000060: fa5d 05bc ce54 67bb 78c5 143c 11b4 8cba
00000070: 73a9 a53b 79c4 b5bb 1f73 47bc 9168 563b
00000080: 0ac3 8b3b 4905 063b 0dfa 98bb 7ec9 b93b
00000090: e3c5 c0ba 0118 153b cef4 a73b d866 9fbb
000000a0: fcd7 023b 6c23 8db9 91c0 ee3a ce3f 203b
000000b0: 690e d338 2901 dd3b 0c39 243b 1958 cf3b
000000c0: 3334 f539 f00a 54bb f2cc d53b 0f81 3eb9
000000d0: c7df e2ba cce2 073a 5cf6 2bba 8940 d93b
000000e0: 6b7d 343b 96fc adbb 7f63 643a 9f5d 3cbc
000000f0: 7f19 a2bb 3157 ecbb ba34 05bc d55a a93b
00000100: 8aa0 da3b 75e0 7c3b c0ec 163c 9dbc d03a
00000110: 40f4 84bc de87 5fba 20d1 213b 783a 4f3a
00000120: eeba babb 4dcc 43bb 4458 b23b 6473 903b
00000130: 8fe3 2f3c cca2 53bb af23 763c 0d1a 1eba
00000140: 971e d03a d2b8 893b e95f 7f3b c804 6c3b
00000150: 32ae d73a a2bd 073c 6a97 7d3c e616 04b9
00000160: 0545 86bb 6d23 8c3b fb52 5e3a 337d 42bb
00000170: 5585 033c 33d2 783a 5950 99bb 60d0 98bb
00000180: 4c3d ccba f341 7cbb 1bdf 133c dd55 443b
00000190: 8ea6 2abc 289e 1e3b a1a7 00bc 5ea5 ffbb
000001a0: ee87 b83b 13df 613a 4669 abbb 4bf0 85bb
000001b0: 9c78 32bb b2db 74b8 c845 f83b b931 e43c
000001c0: 4131 303c 87d3 efbb ff91 103b 39f1 a2bb
000001d0: 06c0 a1ba cc19 8fbb a335 2cbb aad1 f53b
000001e0: 6f82 2ebc 2f4e 81bb 03e9 303a aa56 eb3a
000001f0: 9b8c cbbb 1bec 20bb 1e29 2abb 8ba7 8539
00000200: 57ec 463c 6885 93bb ba6a 433c fd2e 003b
00000210: 205d 34bb 2c6a d5bb b4d3 683c 4473 e73b
00000220: 5510 a33a aece 79ba a761 1a3c 4c25 47bc
00000230: 4881 87bb c754 45bc b147 643a 39db 8e3b
00000240: 24bf 2f3c ebd7 213b 9dc0 a7bb 91a1 1abb
00000250: 3e95 173c e517 093a 9287 cb3a a9b1 8d3b
00000260: 1aef 493b d94e c9bb 7d7c a73b 4a03 93bb
00000270: 5997 453b a3be 993a 10ef eb3b a0fb 94bb
00000280: e077 f3bc 4373 053b 76c1 4e3c 1470 d1bb
00000290: e804 abb9 ed05 06bc 2fe3 0aba 5b0a 17bc
000002a0: 3592 883c 5471 ee3a 8046 403b a959 1abc
000002b0: 3de0 87bb 6505 45bb d493 95ba 07d4 61b9
000002c0: da79 e3bc 700e 4a3b eb4a d43b 0372 0e3b
000002d0: 617d af3b 688b abbb 1d0a 4f3b 3d58 843b
000002e0: 2fc3 2abc e053 bc3b c5db f73a de10 f23b
000002f0: 2e8a 6f3b 6034 913b f6b2 2bbc 59b4 60bb
00000300: ae69 c9bb d641 9fbb b3db 073c bb64 4d3c
00000310: dab4 573b eaa8 b3b9 2842 183c fb9c 95bb
